…
      organization: [#text(font: ("noto serif cjk kr", ))[전남대학교 공과대학]],
      email: "jonghyeon@jnu.ac.kr"
    ),
  ),
  index-terms: (),
  figure-supplement: [Fig.],
)
#set text(font: ("noto serif cjk kr", ))

= 모델 정의 및 학습

실험은 튜토리얼 문서 상의 모델을 그대로 사용하였으므로, 구조가 변화하지 않았습니다.

\

#text(size: .47em)[
```
Model: "sequential"
┏━━━━━━━━━━━━━━━━━━━━━━━━━━━━━━━━━━━━━━┳━━━━━━━━━━━━━━━━━━━━━━━━━━━━━┳━━━━━━━━━━━━━━━━━┓
┃ Layer (type)                         ┃ Output Shape                ┃         Param # ┃
┡━━━━━━━━━━━━━━━━━━━━━━━━━━━━━━━━━━━━━━╇━━━━━━━━━━━━━━━━━━━━━━━━━━━━━╇━━━━━━━━━━━━━━━━━┩
│ resizing (Resizing)                  │ (None, 32, 32, 1)           │               0 │
├──────────────────────────────────────┼─────────────────────────────┼─────────────────┤
│ normalization (Normalization)        │ (None, 32, 32, 1)           │               3 │
├──────────────────────────────────────┼─────────────────────────────┼─────────────────┤
│ conv2d (Conv2D)                      │ (None, 30, 30, 32)          │             320 │
├──────────────────────────────────────┼─────────────────────────────┼─────────────────┤
│ conv2d_1 (Conv2D)                    │ (None, 28, 28, 64)          │          18,496 │
├──────────────────────────────────────┼─────────────────────────────┼─────────────────┤
│ max_pooling2d (MaxPooling2D)         │ (None, 14, 14, 64)          │               0 │
├──────────────────────────────────────┼─────────────────────────────┼─────────────────┤
│ dropout (Dropout)                    │ (None, 14, 14, 64)          │               0 │
├──────────────────────────────────────┼─────────────────────────────┼─────────────────┤
│ flatten (Flatten)                    │ (None, 12544)               │               0 │
├──────────────────────────────────────┼─────────────────────────────┼─────────────────┤
│ dense (Dense)                        │ (None, 128)                 │       1,605,760 │
├──────────────────────────────────────┼─────────────────────────────┼─────────────────┤
│ dropout_1 (Dropout)                  │ (None, 128)                 │               0 │
├──────────────────────────────────────┼─────────────────────────────┼─────────────────┤
│ dense_1 (Dense)                      │ (None, 8)                   │           1,032 │
└──────────────────────────────────────┴─────────────────────────────┴─────────────────┘
```
]

\

그 대신 에폭을 $10$에서 $100$으로 변경하였습니다. 이로 인해 발생하는 학습 시간의 증가는 배치 사이즈를 $64$에서 $128$로 조정하고, 튜토리얼 문서의 \<미니 음성 명령 데이터세트 가져오기\> 섹션의 작은 규모의 음성 명령 데이터 세트를 학습에 사용하여 대응하였습니다.  

= 성능 실험

이렇게 학습시킨 모델의 성능 실험은 제출자 본인의 목소리를 사용하여 평가하는 것으로 수행하였습니다. 제출자는 기말 팀 프로젝트를 위해 마이크 입력 코드를 미리 준비하고 있었으므로, 편의를 위해 이를 사용하여 실험을 수행하였습니다.
…
