…
      organization: [#text(font: ("noto serif cjk kr", "Noto Serif KR"))[전남대학교 공과대학]],
      email: "jonghyeon@jnu.ac.kr"
    ),
  ),
  index-terms: (),
  figure-supplement: [Fig.],
)
#set text(font: ("noto serif cjk kr", "Noto Serif KR"))

= 모델 정의 및 학습

#show raw: set text(font: "D2Coding")

#text(size: .5em, font: "D2Coding")[
```
┏━━━━━━━━━━━━━━━━━━━━━━━━━━━━━━━━━┳━━━━━━━━━━━━━━━━━━━━━━━━┳━━━━━━━━━━━━━━━┓
┃ Layer (type)                    ┃ Output Shape           ┃       Param # ┃
┡━━━━━━━━━━━━━━━━━━━━━━━━━━━━━━━━━╇━━━━━━━━━━━━━━━━━━━━━━━━╇━━━━━━━━━━━━━━━┩
│ conv2d (Conv2D)                 │ (None, 28, 28, 32)     │           832 │
├─────────────────────────────────┼────────────────────────┼───────────────┤
│ conv2d_1 (Conv2D)               │ (None, 28, 28, 32)     │        25,632 │
├─────────────────────────────────┼────────────────────────┼───────────────┤
│ max_pooling2d (MaxPooling2D)    │ (None, 14, 14, 32)     │             0 │
├─────────────────────────────────┼────────────────────────┼───────────────┤
│ dropout (Dropout)               │ (None, 14, 14, 32)     │             0 │
├─────────────────────────────────┼────────────────────────┼───────────────┤
│ conv2d_2 (Conv2D)               │ (None, 14, 14, 64)     │        18,496 │
├─────────────────────────────────┼────────────────────────┼───────────────┤
│ conv2d_3 (Conv2D)               │ (None, 14, 14, 64)     │        36,928 │
├─────────────────────────────────┼────────────────────────┼───────────────┤
│ max_pooling2d_1 (MaxPooling2D)  │ (None, 7, 7, 64)       │             0 │
├─────────────────────────────────┼────────────────────────┼───────────────┤
│ dropout_1 (Dropout)             │ (None, 7, 7, 64)       │             0 │
├─────────────────────────────────┼────────────────────────┼───────────────┤
│ flatten (Flatten)               │ (None, 3136)           │             0 │
├─────────────────────────────────┼────────────────────────┼───────────────┤
│ dense (Dense)                   │ (None, 128)            │       401,536 │
├─────────────────────────────────┼────────────────────────┼───────────────┤
│ dropout_2 (Dropout)             │ (None, 128)            │             0 │
├─────────────────────────────────┼────────────────────────┼───────────────┤
│ dense_1 (Dense)                 │ (None, 10)             │         1,290 │
└─────────────────────────────────┴────────────────────────┴───────────────┘
```
]

\
= 성능 실험

이렇게 학습시킨 모델의 성능을 확인하기 위해 직접 0부터 9까지 10개 수를 4회 작성하였습니다. 몇 개 수는 필체를 조금씩 변주하였으나, 대부분의 경우 동일한 필체입니다.

#figure(
  caption: [추정 테스트에 사용한 손글씨 데이터],
  image("assets/handwritten.jpeg")
)

== 전처리

이렇게 수기 작성한 40개 수는 이미지 편집 프로그램을 이용하여 40개의 이미지 파일로 분할하였습니다. 이후에 코드에서 추가 전처리를 수행할 수 있으므로, 이미지 파일의 해상도와 종횡비를 고려하지 않았습니다. 각 파일의 해상도는 일정하지 않습니다.
…
